…
g which progressively reduces the image resolution while increasing the number of channels to understand the image context.</p> </li> <li> <p>Decoder:    Series of transposed convolutions (or upsampling) that increase resolution.</p> </li> </ol> <p>The result is a binary mask. In our case, this will be the pixels that correspond to clouds.</p>"},{"location":"training/#baseline-simple-u-net-with-3-in_channels-r-g-b","title":"Baseline (Simple U-net with 3 in_channels (R, G, B))","text":"<p>Let's train with this:</p> <pre><code>SimpleUNet(\n  (enc1): DoubleConv(\n    (conv): Sequential(\n      (0): Conv2d(3, 64, kernel_size=(3, 3), stride=(1, 1), padding=(1, 1))\n      (1): BatchNorm2d(64, eps=1e-05, momentum=0.1, affine=True, track_running_stats=True)\n      (2): ReLU(inplace=True)\n      (3): Conv2d(64, 64, kernel_size=(3, 3), stride=(1, 1), padding=(1, 1))\n      (4): BatchNorm2d(64, eps=1e-05, momentum=0.1, affine=True, track_running_stats=True)\n      (5): ReLU(inplace=True)\n    )\n  )\n  (pool1): MaxPool2d(kernel_size=2, stride=2, padding=0, dilation=1, ceil_mode=False)\n  (enc2): DoubleConv(\n    (conv): Sequential(\n      (0): Conv2d(64, 128, kernel_size=(3, 3), stride=(1, 1), padding=(1, 1))\n      (1): BatchNorm2d(128, eps=1e-05, momentum=0.1, affine=True, track_running_stats=True)\n      (2): ReLU(inplace=True)\n      (3): Conv2d(128, 128, kernel_size=(3, 3), stride=(1, 1), padding=(1, 1))\n      (4): BatchNorm2d(128, eps=1e-05, momentum=0.1, affine=True, track_running_stats=True)\n      (5): ReLU(inplace=True)\n    )\n  )\n  (pool2): MaxPool2d(kernel_size=2, stride=2, padding=0, dilation=1, ceil_mode=False)\n  (bottleneck): DoubleConv(\n    (conv): Sequential(\n...\n      (5): ReLU(inplace=True)\n    )\n  )\n  (final): Conv2d(64, 1, kernel_size=(1, 1), stride=(1, 1))\n)\n</code></pre> <p>Results for a first training of 10 epochs with only 100 images:</p> <p> </p> <p>Results for a second training of 9 epochs with 4200 images:</p> <p> </p> <p>This very first model doesn't do too badly, although unfortunately, due to an error in the pipeline, I have to abandon it.</p> <p>In addition, it was only based on the R, G, B layer
…
l is classified as \"cloudy\" or \"not cloudy\"), we can use the <code>BCEWithLogitsLoss</code> loss function. This is a function that applies a sigmoid to the model output and then a Binary Cross-Entropy between the target and the ground truth.</p> <p>Remember: the sigmoid is a symmetrical S-curve centered on 0.5, which crushes the extreme values. It is used to calculate probabilities between 0 and 1. Binary Cross-Entropy measures the error between a predicted probability and an actual target value. The smaller the error, the better.</p> <pre><code>SimpleUNetV2(\n  (enc1): Sequential(\n    (0): Conv2d(4, 32, kernel_size=(3, 3), stride=(1, 1), padding=(1, 1))\n    (1): BatchNorm2d(32, eps=1e-05, momentum=0.1, affine=True, track_running_stats=True)\n    (2): ReLU(inplace=True)\n    (3): Conv2d(32, 32, kernel_size=(3, 3), stride=(1, 1), padding=(1, 1))\n    (4): BatchNorm2d(32, eps=1e-05, momentum=0.1, affine=True, track_running_stats=True)\n    (5): ReLU(inplace=True)\n  )\n  (enc2): Sequential(\n    (0): Conv2d(32, 64, kernel_size=(3, 3), stride=(1, 1), padding=(1, 1))\n    (1): BatchNorm2d(64, eps=1e-05, momentum=0.1, affine=True, track_running_stats=True)\n    (2): ReLU(inplace=True)\n    (3): Conv2d(64, 64, kernel_size=(3, 3), stride=(1, 1), padding=(1, 1))\n    (4): BatchNorm2d(64, eps=1e-05, momentum=0.1, affine=True, track_running_stats=True)\n    (5): ReLU(inplace=True)\n  )\n  (bottleneck): Sequential(\n    (0): Conv2d(64, 128, kernel_size=(3, 3), stride=(1, 1), padding=(1, 1))\n    (1): BatchNorm2d(128, eps=1e-05, momentum=0.1, affine=True, track_running_stats=True)\n    (2): ReLU(inplace=True)\n    (3): Conv2d(128, 128, kernel_size=(3, 3), stride=(1, 1), padding=(1, 1))\n    (4): BatchNorm2d(128, eps=1e-05, momentum=0.1, affine=True, track_running_stats=True)\n    (5): ReLU(inplace=True)\n  )\n  (dropout_bottleneck): Dropout2d(p=0.3, inplace=False)\n  (up1): ConvTranspose2d(128, 64, kernel_size=(2, 2), stride=(2, 2))\n  (dec1): Sequential(\n    (0): Conv2d(128, 64, kernel_size=(3, 3), stride=(1, 1), padding=(1, 1))\n    (1): BatchNorm2d(64, eps=1e-05, momentum=0.1, affine=True, track_running_stats=True)\n    (2): ReLU(inplace=True)\n    (3): Conv2d(64, 64, kernel_size=(3, 3), stride=(1, 1), padding=(1, 1))\n    (4): BatchNorm2d(64, eps=1e-05, momentum=0.1, affine=True, track_running_stats=True)\n    (5): ReLU(inplace=True)\n  )\n  (dropout_dec1): Dropout2d(p=0.3, inplace=False)\n  (up2): ConvTranspose2d(64, 32, kernel_size=(2, 2), stride=(2, 2))\n  (dec2): Sequential(\n    (0): Conv2d(64, 32, kernel_size=(3, 3), stride=(1, 1), padding=(1, 1))\n    (1): BatchNorm2d(32, eps=1e-05, momentum=0.1, affine=True, track_running_stats=True)\n    (2): ReLU(inplace=True)\n    (3): Conv2d(32, 32, kernel_size=(3, 3), stride=(1, 1), padding=(1, 1))\n    (4): BatchNorm2d(32, eps=1e-05, momentum=0.1, affine=True, track_running_stats=True)\n    (5): ReLU(inplace=True)\n  )\n  (final): Conv2d(32, 1, kernel_size=(1, 1), stride=(1, 1))\n  (pool): MaxPool2d(kernel_size=2, stride=2, padding=0, dilation=1, ceil_mode=False)\n)\n</code></pre>"},{"location":"training/#first-experiment","title":"First experiment","text":"<p>I'm very surprised at the quality of the prediction, given that I've only given a subset of 100 lines (some of which are completely empty) out of 10 epochs. However, it's cl
…
